MNISTPredictor/models/10-10-10.pt (torch, 36178 bytes, 6 tensors)

weight f4 [10, 784]
-0.028662022 -0.029843502 -0.008899234 -0.020545488 0.028806578 0.028169211 0.016314164 -0.027679777
-0.0025916696 0.015704725 0.014514551 0.03255185 -0.021769559 -0.008841019 -0.013568747 0.0061924746
-0.009215087 -0.01900509 0.01899686 -0.0065016244 -0.03385712 -0.014705455 0.03280438 -0.012945669
0.0155862495 -0.017026212 0.022950802 -0.0064044986 0.031630997 0.031571303 0.020284075 0.02821524
0.004898027 0.019882439 -0.018154245 -0.0033702601 0.008112646 0.0046614255 -0.0042548315 0.012158062
0.02340687 -0.02685889 -0.015552051 -0.02266436 0.009970412 0.018680705 -0.035837706 -0.034783844
0.02062489 0.022939367 -0.010986445 -0.03199573 0.017655127 -0.017418522 -0.02148547 -0.023843102
-0.03049361 -0.021192849 0.00882259 -0.02980672 0.006230208 -0.02048814 -0.024704572 -0.034511063
0.014662374 -0.031477463 -0.034581143 0.008949398 -0.0026530358 -0.021898806 0.0004460187 0.028604712
0.010071279 0.03327226 0.025677005 0.02871839 0.042758983 0.0048433025 -0.005401082 -0.016158478
-0.012855719 0.0018315342 0.023034561 0.010752946 0.021499634 -0.009249905 0.028659062 0.0059093726
0.030592224 -0.0057760226 -0.013844852 0.031375002 0.0014541406 0.020600067 0.007943902 -0.04484284
-0.04761238 -0.046696458 -0.04708563 -0.014410343 -0.0025616968 -0.02009249 0.021251746 0.056003187
0.050501615 0.05370689 0.027749777 0.016137235 0.023523342 0.0014695232 0.030781418 0.0051685274
0.013498582 -0.0292298 -0.0135886455 -0.03435169 -0.006423 0.030211475 0.027873252 -0.025781216
0.01588739 -0.01567314 -0.03481483 -0.06990032 -0.06092788 -0.076009825 -0.061445806 -0.08681367
-0.045311015 -0.04657359 -0.045769364 -0.033327635 -0.0055967686 -0.0042398814 0.051067617 0.0010770262
0.038718678 0.019824116 -0.028928816 -0.020857228 0.024468299 0.0019050017 0.033689573 0.023156997
0.004869452 0.024942035 -0.004885687 -0.011831671 0.01556651 0.04211324 -0.007996077 0.0015027331
-0.009509304 0.0155871175 -0.00028323763 -0.021104254 0.02121749 -0.028725388 0.01130934 -0.03510402
-0.033143662 -0.053054214 0.023962421 0.041700374 0.046202727 0.03798529 -0.012451682 -0.025381146
0.026861195 0.021042006 -0.02287445 0.0066138543 -0.0057642506 -0.019974919 0.031707615 0.073816806
0.05151295 0.041902486 0.09207034 0.07955057 0.057425544 0.07245392 0.053487904 0.102588244
0.07344009 0.08860378 0.055712547 -0.0086663 -0.018985724 -0.008424392 0.043845117 0.024042984
0.0051107835 0.02564188 0.029130112 -0.02662783 0.0120681 0.013104009 0.017772818 -0.010703485
0.016736543 0.04505951 0.000520362 0.07155047 0.0280471 0.043085933 0.08868197 0.072099276
0.046271514 0.06716141 0.09508856 0.12089619 0.10101004 0.10027007 0.08305959 0.022746092
0.0020467155 0.026771212 0.00033561297 0.035167176 0.057550482 -0.018832073 0.024645738 -0.024111265
-0.00068408815 0.032370057 -0.004356869 -0.030376663 -0.032589838 -0.019100603 0.030265512 0.051719606
0.05844456 0.019571051 0.022630546 0.03638731 0.011352236 0.029033579 0.049370296 0.05113416
0.03409008 0.07594005 0.07436229 0.06898911 0.07347856 0.012237734 0.046693806 0.017576087
0.009584494 0.032133047 0.016384365 0.0016899782 0.020159421 0.016076952 0.027086673 0.012048497
00000000: 9ecc eabc 5c7a f4bc 18ce 11bc 034f a8bc
00000010: c6fb eb3c 1ec3 e63c 48a5 853c b3c0 e2bc
00000020: 00d9 29bb 32a7 803c 70ce 6d3c 1755 053d
00000030: 1356 b2bc ecd9 10bc 734f 5ebc 3eea ca3b
00000040: e0fa 16bc 90b0 9bbc 4e9f 9b3c 940b d5bb
00000050: c3ad 0abd 26ef 70bc e35d 063d 121a 54bc
00000060: 785d 7f3c 8e7a 8bbc 5203 bc3c d4dc d1bb
00000070: 818f 013d e950 013d ca2a a63c a623 e73c
00000080: a17f a03b 7fe0 a23c 36b8 94bc 95df 5cbb
00000090: e7ea 043c dfbe 983b 1d6c 8bbb 9c32 473c
000000a0: c4bf bf3c 2d07 dcbc 08ce 7ebc 9caa b9bc
000000b0: f05a 233c 4708 993c 8fca 12bd 8179 0ebd
000000c0: 88f5 a83c 57eb bb3c 7d00 34bc f40d 03bd
000000d0: 7ca1 903c 4ab1 8ebc 4c02 b0bc 9c52 c3bc
000000e0: bccd f9bc a09c adbc a08c 103c 392d f4bc
000000f0: c626 cc3b bed6 a7bc 3e61 cabc 795b 0dbd
00000100: 743a 703c 83ee 00bd f5a4 0dbd 7fa0 123c
00000110: 8ede 2dbb 2065 b3bc 9ed7 e939 6e54 ea3c
00000120: 0102 253c 7e48 083d 9558 d23c d442 eb3c
00000130: 0b24 2f3d 91b4 9e3b 8ffb b0bb c95e 84bc
00000140: cba0 52bc 1710 f03a fab2 bc3c 202d 303c
00000150: 0020 b03c ea8c 17bc 69c6 ea3c 69a3 c13b
00000160: 8b9c fa3c ca44 bdbb 85d5 62bc 1383 003d
00000170: dd98 be3a 79c1 a83c 2427 023c 20ad 37bd
00000180: 3305 43bd c944 3fbd dddc 40bd 5c19 6cbc
00000190: 24e2 27bb 0199 a4bc 2418 ae3c 9963 653d
000001a0: c8da 4e3d c2fb 5b3d 8053 e33c 3c32 843c
000001b0: 06b4 c03c 049d c03a 5029 fc3c c05c a93b
000001c0: 2829 5d3c 5573 efbc e9a2 5ebc 5cb4 0cbd
000001d0: 0778 d2bb 0e7e f73c 7256 e43c 2133 d3bc
000001e0: 4626 823c f564 80bc ff99 0ebd e627 8fbd
000001f0: 838f 79bd 0aab 9bbd 99ae 7bbd 5ecb b1bd
00000200: 0b98 39bd f3c3 3ebd a878 3bbd 8f82 08bd
00000210: 1965 b7bb b4ee 8abb 472c 513d 012b 8d3a
00000220: 7a97 1e3d 2f66 a23c 20fc ecbc c7dc aabc
00000230: be71 c83c 40b1 f93a 14fe 093d beb3 bd3c
00000240: ed8f 9f3b 3d53 cc3c 1d18 a0bb a0d9 41bc
00000250: ad0a 7f3c ef7e 2c3d fa01 03bc 5bf7 c43a
00000260: e9cc 1bbc 1c61 7f3c 837f 94b9 d4e2 acbc
00000270: 4dd0 ad3c 8151 ebbc cf4a 393c 3cc9 0fbd
00000280: a6c1 07bd 604f 59bd d74c c43c 03ce 2a3d
00000290: 123f 3d3d 7796 1b3d 2402 4cbc 1fec cfbc
000002a0: 020c dc3c 4960 ac3c 3363 bbbc 08b9 d83b
000002b0: 0ae2 bcbb 71a2 a3bc d8df 013d 442d 973d
000002c0: 3eff 523d f1a1 2b3d 608f bc3d 69eb a23d
000002d0: 0c37 6b3d b962 943d 2216 5b3d c919 d23d
000002e0: c267 963d e675 b53d d732 643d 19fd 0dbc
000002f0: f387 9bbc 7606 0abc f096 333d cbf5 c43c
00000300: 5c78 a73b ec0e d23c 46a2 ee3c 9b22 dabc
00000310: 48b9 453c 33b2 563c 4d98 913c ac5d 2fbc
00000320: 131b 893c 5290 383d e768 083a 0e89 923d
00000330: 08c3 e53c e07a 303d e59e b53d c9a8 933d
00000340: 3387 3d3d ec8b 893d cabd c23d 6c98 f73d
00000350: 5ade ce3d 655a cd3d 251b aa3d 0356 ba3c
00000360: 3022 063b 4d4f db3c 36f5 af39 750b 103d
00000370: 0eba 6b3d b845 9abc dce5 c93c fd84 c5bc
00000380: 6154 33ba 7796 043d 11c4 8ebb 7bd8 f8bc
00000390: ec7c 05bd de78 9cbc 61ef f73c f0d7 533d
000003a0: 9063 6f3d 7853 a03c b263 b93c dc0a 153d
000003b0: bbfe 393c d4d7 ed3c 8238 4a3d 0e72 513d
000003c0: 0aa2 0b3d 7586 9b3d 424b 983d 2a4a 8d3d
000003d0: ed7b 963d c780 483c 0142 3f3d bafb 8f3c
000003e0: 4808 1d3c f19d 033d 8138 863c 4282 dd3a
000003f0: 5f25 a53c d0b3 833c dfe4 dd3c 0f67 453c

bias f4 [10]
0.1322673 0.07908232 0.23700516 -0.0015319771 -0.09671076 0.18141776 0.030054433 -0.04515944
-0.0063857217 0.06735822
00000000: 1471 073e e9f5 a13d 7bb1 723e 9fcc c8ba
00000010: 4a10 c6bd 94c5 393e b734 f63c 1bf9 38bd
00000020: 513f d1bb 1bf3 893d

weight f4 [10, 10]
-0.21525717 -0.113853864 0.7591576 -0.052566234 -0.434268 0.59949934 0.07015414 -0.6438408
-0.47269005 0.65222144 -0.20784466 0.57462394 -0.46544972 0.807381 -0.6772029 -0.014040403
-0.93738776 -0.6229474 0.34384072 0.514562 -0.22187078 0.084723175 -0.22097799 -0.29919446
-0.26888698 0.1341095 -0.27261928 0.09463644 -0.23609686 -0.31251144 0.79744536 -0.14701475
0.39651263 0.83796 -0.33413357 0.6020402 0.43388957 -0.6450151 0.010769544 -0.6296736
-0.49745777 -0.8298671 -0.30402464 0.6858893 0.44987285 0.7196493 0.4519892 0.066145785
0.29056853 1.0401331 0.39142662 0.64289993 -0.24451123 -0.61321205 0.5620893 1.1182507
0.099470675 -0.24463248 1.2268425 -0.19526918 0.3690609 1.1555594 0.24852584 0.6793688
0.23193793 0.07906166 -0.36613733 0.5627767 -0.7097814 0.6920705 -0.30576316 -0.089952014
0.30379406 -0.29913402 0.3068514 -0.25584787 0.3023742 0.039594322 0.021177726 -0.00015919517
-0.29490304 -0.26474437 0.016087571 0.11596336 0.20949566 -0.2540292 -0.15240906 0.06549979
-0.14550766 -0.10393447 -0.5827876 -0.40530136 -0.042240124 1.0285743 0.6951107 -0.3422433
-0.19076611 0.4532636 0.38373753 -0.49088696
00000000: 606c 5cbe 372c e9bd 2758 423f b14f 57bd
00000010: 6058 debe ca78 193f f9ac 8f3d c0d2 24bf
00000020: 6e04 f2be fcf7 263f 3bd5 54be 8e1a 133f
00000030: 6d4f eebe 85b0 4e3f 2b5d 2dbf b809 66bc
00000040: a5f8 6fbf 7b79 1fbf e40b b03e 56ba 033f
00000050: 1832 63be 5883 ad3d 0e48 62be 0430 99be
00000060: 8eab 89be 0054 093e c194 8bbe c0d0 c13d
00000070: 60c3 71be 8001 a0be 6125 4c3f 098b 16be
00000080: b403 cb3e 8c84 563f 8e13 abbe 4e1f 1a3f
00000090: c626 de3e b61f 25bf be72 303c 4a32 21bf
000000a0: c9b2 febe 2c72 54bf 1ea9 9bbe 7196 2f3f
000000b0: bc55 e63e f03a 383f 216b e73e 7177 873d
000000c0: 66c5 943e 1523 853f 1269 c83e 1795 243f
000000d0: 2761 7abe 77fb 1cbf 16e5 0f3f d722 8f3f
000000e0: 48b7 cb3d f080 7abe 2d09 9d3f a5f4 47be
000000f0: 8df5 bc3e 5fe9 933f 8f7d 7e3e 1deb 2d3f
00000100: 2381 6d3e 14eb a13d 5a76 bbbe 2212 103f
00000110: 3cb4 35bf 882b 313f fd8c 9cbe c338 b8bd
00000120: e58a 9b3e 1828 99be a01b 9d3e 7efe 82be
00000130: cbd0 9a3e a82d 223d e97c ad3c a1ed 26b9
00000140: 88fd 96be 938c 87be 15ca 833c 337e ed3d
00000150: 0886 563e 1e10 82be 1f11 1cbe c124 863d
00000160: f6ff 14be 98db d4bd 9131 15bf a983 cfbe
00000170: fb03 2dbd 53a8 833f c6f2 313f 843a afbe
00000180: 3158 43be 2b12 e83e 3f79 c43e 8955 fbbe

bias f4 [10]
0.42299646 -0.19769388 -0.2741468 -0.29951423 0.24050795 0.5068473 -0.26558158 -0.2557015
-0.20919389 -0.12717046
00000000: fe92 d83e 4470 4abe f85c 8cbe ee59 99be
00000010: b747 763e bfc0 013f 4ffa 87be 4feb 82be
00000020: ec36 56be f938 02be

weight f4 [10, 10]
0.5813356 -0.12036327 0.3119739 0.93451244 0.3467062 -0.9487397 -0.24963406 0.022747317
-0.24764197 -0.47888187 -0.051131546 0.43512663 -0.06501868 -1.2788237 0.8375933 0.30023134
-0.7015588 0.099622235 -0.11666952 0.2929287 -0.19664286 0.11786041 -0.17014739 0.16563368
0.25264004 -0.3245457 -0.12979245 0.11251194 0.041614763 1.2012371 -0.69102883 -0.979989
-0.29592454 -0.17343938 0.94467896 0.19709899 0.10969449 0.29112238 -0.047355093 0.26382133
-0.6511036 -0.07296709 -0.13281202 -0.3609348 -1.0567762 0.29942778 0.932403 0.043809302
0.14520153 -0.35034868 0.90943456 -0.55489355 0.26750603 -0.46510807 0.43756858 -0.12835361
0.5057442 0.30473685 0.17203337 -0.33639115 -0.1443209 0.857375 -0.07765184 0.11726257
-0.35638186 -1.2424372 0.69163764 -0.14275649 0.24059853 -0.09482674 0.11105488 -0.645154
-0.20623703 0.3810397 -0.4351096 1.0739533 -1.1147152 -0.08640299 0.05306585 0.58597386
-0.15340292 0.8430049 0.17299917 -0.1742454 0.35416433 -0.081241384 0.058725033 0.15206976
0.11452597 -0.3799204 -0.014571442 0.1209283 0.1770424 0.11294839 -0.41187832 0.7083693
-0.21315214 -0.07761516 0.046139218 -0.24876378
00000000: 69d2 143f 0581 f6bd 0bbb 9f3e 353c 6f3f
00000010: 7a83 b13e 9be0 72bf 12a0 7fbe 9558 ba3c
00000020: db95 7dbe 0130 f5be 506f 51bd ebc8 de3e
00000030: 8428 85bd 7fb0 a3bf 846c 563f ecb7 993e
00000040: 5c99 33bf be06 cc3d 6ef0 eebd c0fa 953e
00000050: bf5c 49be cc60 f13d 1e3b 2ebe e09b 293e
00000060: 095a 813e db2a a6be 50e8 04be a96c e63d
00000070: 3e74 2a3d 23c2 993f 44e7 30bf 8fe0 7abf
00000080: 6c83 97be 189a 31be 7bd6 713f 51d4 493e
00000090: 81a7 e03d fe0d 953e 6af7 41bd 9713 873e
000000a0: baae 26bf c56f 95bd e0ff 07be 72cc b8be
000000b0: 7144 87bf 994e 993e f7b1 6e3f 6271 333d
000000c0: b6af 143e e760 b3be b4d0 683f 810d 0ebf
000000d0: 8df6 883e a522 eebe fd08 e03e 216f 03be
000000e0: 7478 013f 7806 9c3e 8429 303e 763b acbe
000000f0: dcc8 13be ee7c 5b3f ee07 9fbd 5c27 f03d
00000100: af77 b6be 2f08 9fbf 2a0f 313f c22e 12be
00000110: 765f 763e 8634 c2bd be70 e33d d028 25bf
00000120: cd2f 53be a317 c33e afc6 debe 4d77 893f
00000130: fdae 8ebf 0df4 b0bd 945b 593d 6202 163f
00000140: a815 1dbe 2bcf 573f b226 313e 636d 32be
00000150: 0755 b53e e261 a6bd a989 703d 2db8 1b3e
00000160: 978c ea3d ed84 c2be 0fbd 6ebc 42a9 f73d
00000170: 9a4a 353e 7c51 e73d b7e1 d2be b157 353f
00000180: 8e44 5abe b2f4 9ebd 7afc 3c3d efbb 7ebe

bias f4 [10]
-0.409014 0.5787384 0.21151099 -0.033495855 0.05947981 0.41067615 -0.13692391 -0.19204025
-0.5938519 -0.30506042
00000000: 486a d1be 3328 143f 5696 583e f332 09bd
00000010: 1aa1 733d 2544 d23e c835 0cbe 33a6 44be
00000020: ae06 18bf e130 9cbe
