MNISTPredictor/models/25-25-25.pt (torch, 86098 bytes, 6 tensors)

weight f4 [25, 784]
000000 30 3b 7e 3b 9e 20 c6 bc 92 a4 1d bc 2c da ff bc
       0.0038792603 -0.024185475 -0.009621756 -0.031231962
000010 c8 92 85 bb 1e d3 06 bd c8 82 6d 3c f0 b6 02 bb
       -0.0040763356 -0.03291618 0.014496513 -0.0019945465
000020 7c 31 ae 3c 6a fe 1e bc ec 36 c1 3c 26 75 eb 3c
       0.02126383 -0.009704212 0.02358576 0.028742384
000030 4c 25 b9 3c d3 06 01 3d 05 0b 81 bc 70 e5 70 3c
       0.022600792 0.03150065 -0.015752325 0.01470314
000040 90 5f b9 3b 98 d0 1f bc 94 bb cb bb 0c 56 ac 3c
       0.005657144 -0.0097543225 -0.0062174294 0.021037124
000050 e0 08 01 bb 28 80 20 3c b0 92 2e 3c 60 84 a4 bc
       -0.0019689128 0.00979618 0.01065509 -0.020082653
000060 9e 84 f4 bc 60 2c ae bc 33 40 02 bd 64 b2 83 3c
       -0.029848393 -0.021261394 -0.031799506 0.016076274
000070 f8 61 9d 3c 5c 43 e8 bb 76 bf ff 3c 32 f4 c9 3c
       0.019211754 -0.007088108 0.031219225 0.024652574
000080 82 f5 b3 3c af 86 a3 3b 89 5e c4 3c 8c f5 09 3d
       0.021967653 0.004990421 0.02397086 0.033681437
000090 db ee 59 bc 88 94 9c 3c f2 00 e3 3c 59 f9 06 bc
       -0.0133015765 0.019113794 0.027710412 -0.00823816
0000a0 3c d4 ba bc 4b 67 d8 bc cb bd fa bc fc 9d b8 3b
       -0.02280628 -0.026416441 -0.030608078 0.0056340676
0000b0 59 1c c8 3c 0d 41 08 bc 9e 0f 2a bc 7b 5f 73 bc
       0.02442758 -0.008316291 -0.0103797 -0.014854307
0000c0 fe f5 ef 3c 65 b7 d1 bc 1c 53 30 3b ba 1b a2 bc
       0.029292103 -0.025600145 0.0026905006 -0.019788612
0000d0 78 2f eb 3b 6d 7d 07 3d 54 37 97 bb 6e 76 95 bc
       0.0071772896 0.0330786 -0.00461475 -0.018244948
0000e0 38 8d 91 3b 55 03 c2 bc 1b a1 7a 3c 66 6a ac 3c
       0.0044418834 -0.02368323 0.0152972 0.021046828
0000f0 f4 8f 1d 3a 07 28 f1 bc ad f6 5b bc bd 40 50 bc
       0.00060105254 -0.029438032 -0.013425511 -0.012710747
000100 ab 05 29 3c 37 4f a5 3c f8 a5 23 3b 1d 59 92 bc
       0.010316293 0.020179374 0.0024970751 -0.017864758
000110 5f d1 e0 bc a1 78 87 bc f1 4a cb 3c 76 f6 bd 3c
       -0.027443586 -0.016537013 0.024816008 0.02318881
000120 fb aa 60 bc ea b7 b6 3c 2a 0e 04 bd 44 ac 0f bd
       -0.01371264 0.022304494 -0.03224007 -0.035076395
000130 c4 68 04 3d 9c ca b7 bc 2e a0 09 3d c4 bf ba 3c
       0.032326475 -0.022435479 0.033600025 0.02279652
000140 e8 c6 7c 3c 23 41 02 bd 32 2d dd 3c b5 37 0f bd
       0.015428282 -0.0318004 0.02699909 -0.034965236
000150 32 a1 f0 3c b2 91 ec 3c 33 2b 0a bd fd 4a 2f bc
       0.029373739 0.028878067 -0.033732604 -0.010699031
000160 b3 f0 98 bc ad cb 99 bc 03 10 f9 3c d7 22 b5 bc
       -0.018669462 -0.018773878 0.030403143 -0.02211134
000170 07 9a 87 3c 0e 66 ba 3c c8 d6 c4 bc df 3f a5 bc
       0.016552938 0.022753742 -0.024028197 -0.020172058
000180 cc c2 08 3d 69 1a 51 bc d7 1d 88 bc 18 02 4d bc
       0.033388898 -0.012762644 -0.016615791 -0.012512706
000190 61 63 51 3c 28 8f 57 bc d2 f6 e4 3c 00 8b b5 bb
       0.012780041 -0.01315669 0.027949724 -0.0055402517
0001a0 13 b1 00 bc 5f 09 98 3c 37 f9 a9 bc 80 75 0f 3d
       -0.007854718 0.018559156 -0.020748718 0.035024166
0001b0 64 4f 6d bc e1 fd 02 bd 4a ab c7 bc 7e 66 a7 3c
       -0.01448426 -0.0319804 -0.02437367 0.020434614
0001c0 dd ad 01 bd 10 df 55 bb f2 87 bf bc f9 12 93 3c
       -0.03165995 -0.0032634176 -0.023380253 0.017953383
0001d0 fa 2a 03 bd 97 9e 09 3d 10 9b e5 bb ec c3 ae bc
       -0.032023408 0.03359851 -0.0070070103 -0.021333657
0001e0 d4 d4 e5 bc 47 4b ed bc 8e cd a6 3c ce bc 1a 3d
       -0.028055586 -0.02896656 0.020361688 0.037777714
0001f0 b1 18 a8 3c 47 9a 79 3c 57 05 be 3b e1 ef f6 bc
       0.020519586 0.0152345365 0.0057989764 -0.03014368
000200 84 04 df bc a6 e7 45 bc 64 8e 37 3b fe 0d 9f 3c
       -0.027223833 -0.012079155 0.0028008455 0.019415852
000210 72 b6 3b 3c 9d 6b 34 bc 18 e6 0b bd 6f 03 11 3d
       0.011457073 -0.011011985 -0.03415498 0.035403665
000220 d2 58 33 3c dc da 0d 3d 37 9b 85 3c 7c af b0 3c
       0.010946469 0.03463255 0.016309364 0.021568052
000230 e6 2b dc 3c c3 e5 c9 bc 0d 10 cc 3c 89 47 ef 3c
       0.026876401 -0.024645692 0.024909997 0.029208915
000240 c5 e7 8a 3c 8c 5f ca 3b 74 29 b7 3c 1e d8 2c bb
       0.01695622 0.006175941 0.022358634 -0.0026373933
000250 2d ec 00 bd e7 82 cb bc ab e9 33 bc f9 8f 76 3c
       -0.031475235 -0.024842693 -0.010981004 0.015048974
000260 f4 94 af 3c f3 3e 86 3a e6 e5 8c bc 45 9b e9 3c
       0.021433331 0.0010242149 -0.017199468 0.028516421
000270 e9 60 bb 3b c0 95 5f bc 9b ef 04 3d 35 8d 97 bc
       0.0057183397 -0.013646543 0.032455068 -0.01849995
000280 77 9b a9 bc 18 47 6d 3c eb 46 61 3c 83 4d 8a 3c
       -0.020704014 0.014482282 0.013749818 0.016882664
000290 77 61 be bc c5 08 35 3b 27 ba 01 bc 82 b0 89 3c
       -0.023239834 0.0027623635 -0.007917917 0.016807798
0002a0 d4 fd 55 3c c0 40 59 bc e5 a5 0c 39 64 0c db bc
       0.013061006 -0.0132600665 0.00013413241 -0.026739307
0002b0 8c 88 2f 3c b1 47 7f 3b f1 65 25 bc 79 66 a4 3c
       0.010713708 0.0038952644 -0.0100951055 0.020068394
0002c0 56 0c 38 3b 81 38 22 bc d6 ab b3 bc b7 13 aa 3c
       0.0028083525 -0.009901167 -0.021932524 0.020761354
0002d0 88 4a e6 bc 4e 6a b1 3c 60 80 fc 38 af 16 b3 3c
       -0.028111711 0.021657135 0.00012040208 0.021861402
0002e0 2f 52 f1 bb 34 49 c3 bc 5a 85 55 bc 0d 36 1e 3c
       -0.0073645334 -0.023838617 -0.013032282 0.009656441
0002f0 e1 47 eb 3c 0a f0 61 bc 05 da 2c 3c 84 bc 83 bc
       0.028720798 -0.01379014 0.010550027 -0.016081102
000300 d6 72 00 bd fa 02 73 3c 09 86 15 bc 8b f5 e6 3c
       -0.031359516 0.014832253 -0.009126195 0.028193256
000310 a4 a3 bd bc af 00 91 3c 3e 96 b6 3b a7 93 07 bc
       -0.023149319 0.017700521 0.0055721095 -0.008274949
000320 41 0f c3 bc 0b 5b 01 bd f6 5a b9 3b 08 49 5f ba
       -0.023810985 -0.031580966 0.0056565953 -0.00085176574
000330 ce 1c e4 bc 24 3f d0 3a 24 29 cb bc 13 6d 4b 3c
       -0.027845766 0.0015887958 -0.02479989 0.012416142
000340 06 d9 06 bd 81 d3 3d 3c 10 ef a9 3c 98 aa d8 bc
       -0.032921813 0.011586071 0.020743877 -0.026448533
000350 4e 94 81 bc e7 a6 a2 bc e2 e5 98 ba 6f d1 e6 3c
       -0.015817787 -0.019854976 -0.001166519 0.028176038
000360 3a af 3a bc 09 8f 8f bc 16 db 4e 3c 50 9d a6 bc
       -0.011394316 -0.01752426 0.012625476 -0.020338684
000370 b5 0d a5 bb a2 b1 74 3c 54 60 fd bc cb 41 9b bc
       -0.0050370344 0.014934929 -0.030929722 -0.018952271
000380 9e 1b 89 bc 12 10 1b 3c 14 62 80 3b 54 1d 7f 3c
       -0.016736802 0.009464281 0.003917942 0.015570957
000390 42 6d 23 bc fd bc 92 bc 34 37 0c 3d d5 fe 58 3c
       -0.00997478 -0.017912382 0.034232333 0.01324435
0003a0 54 ab ff bc cb c1 03 bc 3e 04 8b 3b 84 51 bc 3c
       -0.031209625 -0.008041809 0.004242449 0.022988088
0003b0 66 14 54 3c a6 ac 50 3c 6a ec 73 bc 1a ea b5 3c
       0.0129443165 0.012736475 -0.0148879085 0.022206355
0003c0 91 8b 17 bd fe 7c 70 3c f4 0c f9 bc 89 32 1e bc
       -0.036998335 0.014678238 -0.030401684 -0.009655603
0003d0 94 8a 68 bc df 44 8c bc 8f 6e b0 bc 48 62 9f bc
       -0.014193196 -0.017122684 -0.021537093 -0.019456044
0003e0 f1 a6 7a 3b ee 71 f0 3c b3 8c 8d bc e7 ef b1 bc
       0.0038246477 0.0293512 -0.017279005 -0.02172084
0003f0 40 5f 64 3c c7 30 51 bc 71 83 6b 3c 17 38 ea bc
       0.013938725 -0.012767977 0.0143746 -0.028591199

bias f4 [25]
000000 e0 34 b0 3c bb a2 9e 3c d1 cb b7 3c d3 84 eb 3b
       0.021509588 0.019364705 0.022436054 0.0071874647
000010 14 b5 13 3d 1c 65 b6 3d e0 58 15 3c d5 2d 1d 3c
       0.03606136 0.08906004 0.009115428 0.009593447
000020 9d ac a9 3d b0 a9 46 3d f9 e2 54 bc 1f f1 19 3d
       0.082848765 0.04850167 -0.012993568 0.037583467
000030 63 d0 c0 3d 92 1a 61 3d 9b b6 b6 3d 33 6c 06 bc
       0.094147466 0.05495698 0.08921548 -0.008204508
000040 3d 82 9d 3d cc cf bb 3d cb f4 eb 3d 15 ad a9 3d
       0.076908566 0.091704935 0.115213 0.08284966
000050 6b 8c a8 3d 24 0b 76 bd 85 67 76 3c 5b 69 2d 3b
       0.082299076 -0.06006922 0.015039329 0.0026460502
000060 14 ec 0e 3e
       0.13957244

weight f4 [25, 25]
000000 31 2d 1d bd d7 99 02 3f 1c 04 03 3f 32 81 3a be
       -0.038373176 0.5101599 0.51178145 -0.18213347
000010 e6 6e 0b be 4c 44 8b be 8b fd 8e bd 1f d2 6b bd
       -0.13616523 -0.27200544 -0.06981953 -0.057573434
000020 97 f3 7a bb 1a d5 f9 3d 97 38 0d 3e 21 a3 50 3e
       -0.0038292164 0.12198849 0.13791119 0.20374729
000030 34 99 24 3e 3a bf 8a 3e 07 ab 06 be c9 54 00 3e
       0.16074067 0.2709902 -0.13151179 0.12532343
000040 e2 a9 43 3d 0b 23 45 bc 66 c7 fe bd 01 3f 00 bc
       0.047769435 -0.012032281 -0.12440376 -0.007827521
000050 7f 45 a9 3c e1 cf cc 3e 52 5a d0 3e 71 5a 38 be
       0.020663021 0.4000235 0.4069391 -0.1800325
000060 d5 eb cd be 86 51 3a bd f8 7c 41 3e 54 67 76 3d
       -0.40218988 -0.045487903 0.18895328 0.060157135
000070 bc 5f 9f 3d 71 91 ec 3d 5d ed 16 bd 6a 35 22 bd
       0.07781932 0.11551178 -0.03684746 -0.03960172
000080 3b a9 49 3e 95 6a 94 3d 59 3f 6c 3d a9 3d 13 3e
       0.19693463 0.072468914 0.0576776 0.1437899
000090 fb 38 ec bc f1 0c 4e 3e f2 94 6b bc 6f 0d 4b be
       -0.028835764 0.20122124 -0.014378773 -0.19829343
0000a0 3c 75 2e 3e eb a1 a0 3d 38 d8 07 3e 50 55 c2 bd
       0.17036909 0.078433834 0.13266075 -0.09488928
0000b0 eb 57 84 3e 13 30 ad bc b2 ae 62 3e ca 03 47 be
       0.25848326 -0.021141088 0.22136953 -0.19435039
0000c0 6b 99 8b 3d c7 8f 83 3d f6 55 bb bd 61 1e 2b 3e
       0.068163715 0.06423908 -0.09147255 0.16710807
0000d0 f4 ab 16 be b9 3c d5 bd 0a c7 67 bd 34 85 15 bd
       -0.14714032 -0.104119726 -0.056586303 -0.036503986
0000e0 64 f6 f9 bd 70 67 4a be ba e3 81 bd 1a e9 8e 3d
       -0.122051984 -0.19766021 -0.063422635 0.06978054
0000f0 7c 68 20 bd 4d a7 0d 3c 6d 26 fb 3b a8 c2 fb bc
       -0.039162144 0.008645845 0.007664493 -0.030732468
000100 fb ce c7 bd 15 34 95 3d 7c 9e 25 be 55 b0 22 be
       -0.09756275 0.072853245 -0.16173738 -0.15887578
000110 b4 f3 07 3d ea 8d 31 be 41 c3 d6 bd 5f 56 d1 3d
       0.033191398 -0.17339292 -0.104864605 0.10221552
000120 59 7f 00 be 5e db e2 bd 75 bb b5 bd 80 64 2d be
       -0.1254858 -0.11076997 -0.08873645 -0.16932869
000130 4e 99 10 3d c9 81 f2 bd a2 a3 f3 3d ba d3 51 3e
       0.035302453 -0.11841161 0.11896445 0.20490924
000140 0a cb 1e bd bc eb 32 be e3 9f b6 3d 67 ad e3 3d
       -0.038767852 -0.17472738 0.08917215 0.11117058
000150 da f0 a5 bd 64 0b 8b 3d d8 32 3a 3e ae 6f a7 3e
       -0.081025794 0.06789282 0.18183458 0.32702392
000160 58 cd 70 be 18 e0 e8 bc 07 02 05 be fc c0 c5 3d
       -0.23515832 -0.028427169 -0.12989055 0.096559495
000170 61 0c 81 be da 77 fe bd 94 7b 3b 3e 8d bb 6a bd
       -0.25204757 -0.124252036 0.1830886 -0.05730777
000180 a6 c8 0e bb c2 9e 52 3d 86 58 bb bd be 29 a2 3e
       -0.0021787076 0.051420934 -0.09147744 0.31672472
000190 d7 34 43 be 1c 54 58 3e e3 61 aa 3d 78 1f 88 bd
       -0.19063126 0.21125835 0.08319452 -0.06646627
0001a0 dc d7 00 3d a9 8b 5c 3e 78 21 2c 3c b7 7b ca bb
       0.03145586 0.21537651 0.010506026 -0.0061792987
0001b0 c2 61 37 3e c9 a8 89 be 4f 71 90 bd 35 59 92 3a
       0.17908385 -0.26886585 -0.07052862 0.0011165502
0001c0 98 b9 7a 3e 09 10 70 3d 10 73 48 3e 08 9f fe 3d
       0.24484861 0.058609042 0.19575143 0.124326766
0001d0 4e fb 44 be 75 a3 d5 3d 55 64 99 3e 57 89 d9 bd
       -0.1923649 0.104315676 0.2995936 -0.106218986
0001e0 7e b2 93 39 e6 33 97 be 54 0f 8e 3e d8 7e 2f 3e
       0.00028171012 -0.29531783 0.2774607 0.17138231
0001f0 40 19 85 3e 4d 19 8b 3d ae 92 76 3b cf 64 ca 3e
       0.25995827 0.06791935 0.003762405 0.39530036
000200 9e f6 e8 3b 17 8b 67 be 04 fb 47 be 41 3d 42 3e
       0.007109477 -0.22611652 -0.19529349 0.18968679
000210 05 f9 ec 3d 04 6a 8d be e2 95 d2 3e 42 89 fa ba
       0.11570934 -0.27619946 0.41129977 -0.0019114392
000220 be 13 9b 3c b5 44 8f be d1 4b a6 3e b7 09 e4 3e
       0.018930312 -0.27982107 0.32479718 0.44538662
000230 26 de 61 3d dc 8e 1c 3e a5 db 71 be 81 0c b7 3e
       0.055143498 0.15288872 -0.23618944 0.35751727
000240 9f 4b 80 3e cd 56 a3 3d 4d 06 67 be 1e 0d e8 3c
       0.25057694 0.0797554 -0.22560997 0.028326567
000250 73 0b c8 bd 3b 9d 8b be 51 e1 d3 bd 2e 28 fc bc
       -0.09767809 -0.27268395 -0.1034571 -0.030780878
000260 91 02 16 3e 7e 4c 53 3e 0c b4 f8 bd 15 49 49 be
       0.14649417 0.20634648 -0.12143716 -0.19656785
000270 00 97 24 bc 23 c9 34 3e 20 2d e3 bd a3 3b 35 3e
       -0.010045767 0.17654853 -0.11092591 0.17698531
000280 c4 56 44 be 6f e6 e1 bc 2b 06 20 be a0 8d 1a be
       -0.19173723 -0.0275757 -0.15627353 -0.15093088
000290 7e 62 53 3c b0 6e a5 3c b7 0a ea 3c ab e0 3c be
       0.0129019 0.020194381 0.028569562 -0.18445079
0002a0 00 5c a2 3b 58 bc 11 be a9 84 fc bd ee 53 90 bd
       0.004954815 -0.14232004 -0.123299904 -0.07047258
0002b0 c0 e9 32 3e 37 09 1a 3d 92 91 df bd 15 d6 32 3e
       0.17471981 0.037606444 -0.10916437 0.17464478
0002c0 75 4a 40 be 3d 1b 20 be 54 94 2e bd 34 20 3e 3d
       -0.18778403 -0.1563539 -0.042621925 0.04641743
0002d0 77 11 4a be 38 81 4a be 92 6f 3a be 68 50 42 bd
       -0.19733225 -0.19775856 -0.18206623 -0.047439963
0002e0 33 82 3c be 00 5f 0e be eb 64 43 3e 85 10 08 3e
       -0.18409042 -0.13903427 0.19081466 0.13287552
0002f0 c0 4e a5 3b 96 13 98 3d 75 f4 0f 3e 4d 82 f8 bd
       0.005044788 0.07425611 0.14058097 -0.12134228
000300 50 ff 50 bc ea 3e e6 bd 30 0a 02 be 6d 12 f8 bd
       -0.012756184 -0.11242469 -0.12699199 -0.121128894
000310 7d bb 02 3e 74 6d 4c bd 3e 14 19 be a0 5c 39 3d
       0.12766834 -0.04990907 -0.14949128 0.04525435
000320 8c 60 80 3d 29 be 81 be 28 74 99 3e ec f1 a5 3d
       0.06268415 -0.25340393 0.29971433 0.081027836
000330 c9 99 53 be f4 39 7f be b1 18 17 bd 72 9b bc bc
       -0.20664133 -0.24924451 -0.036888782 -0.02302334
000340 38 94 65 be f5 30 ef 3e f0 52 49 be ba 8e 22 be
       -0.22419822 0.4671704 -0.19660544 -0.15874758
000350 5f c0 69 3e 54 7a 41 bd b6 32 21 3f b7 24 8c ba
       0.2282729 -0.0472358 0.62968004 -0.0010692094
000360 9f 64 66 3e 3e e5 a9 bd ca 5f 98 3e 02 eb 26 be
       0.22499321 -0.082956776 0.2976058 -0.16300586
000370 84 f7 33 bd 86 4b 0b 3e fd 8a 88 be b8 78 10 3d
       -0.04393722 0.13603029 -0.2666854 0.035271376
000380 71 88 50 be b5 a0 29 be 85 f4 cb be 5f 7a 36 bd
       -0.20364548 -0.16565211 -0.3983499 -0.044550296
000390 83 c0 6d 3d ad 71 f7 3d 35 7e 5f 3e 35 e4 32 be
       0.05804492 0.12082229 0.21825488 -0.17469867
0003a0 f2 7c a8 3d 41 0a 57 3e 4c d9 3c 3e c9 ec eb bd
       0.082269564 0.21000005 0.18442267 -0.115197726
0003b0 cb 93 43 3e fd 5a 04 3e c4 c5 1e bc 22 55 e5 3e
       0.19099347 0.12925334 -0.009690706 0.44791514
0003c0 29 35 aa 3d 5c ba 0f 3e c2 f4 06 3e 61 35 78 3e
       0.08310921 0.14035934 0.13179305 0.24239112
0003d0 6f 72 85 3d 0d 52 b2 bd 9a 77 90 be 05 cc ab be
       0.06515967 -0.08707056 -0.2821625 -0.33554092
0003e0 d3 5a 3b be a5 cc 8e 3e 0f 4d 03 3e 8f ea b1 be
       -0.18296365 0.27890506 0.12822364 -0.34749267
0003f0 22 c0 10 3f 0e 67 54 be be d8 8a 3d 7c 09 19 3e
       0.5654317 -0.20742437 0.067796215 0.14945024

bias f4 [25]
000000 ab 5e 16 3e 6b e6 53 be cb 82 84 3c 5a 12 71 bd
       0.1468455 -0.20693366 0.016175648 -0.058855392
000010 85 d4 52 3e 84 26 36 3e 84 66 9f bc 9d 41 48 be
       0.20588882 0.1778813 -0.019458063 -0.1955628
000020 bd 10 8b bd fc 96 40 3e c9 62 8e 3e 02 9d 6e bd
       -0.06790302 0.18807596 0.27809742 -0.058255203
000030 b3 b0 63 3d 04 f9 ef 3d ed 26 57 3d 91 c0 3b bd
       0.055588435 0.11717418 0.052527357 -0.045837943
000040 20 67 34 bd 5d 8d 2a be 02 c7 24 3e b4 fd f7 bc
       -0.04404366 -0.16655488 0.1609154 -0.030272342
000050 10 c0 12 3e 8b dd 42 3d 43 74 8d bd 05 c1 3d 3e
       0.14331079 0.04757456 -0.06906941 0.18530662
000060 3b f3 12 be
       -0.14350598

weight f4 [10, 25]
000000 ae df 8d be 4a 5e 3b 3d ba 55 ba bd f3 36 40 be
       -0.27709717 0.045744218 -0.09098382 -0.18770961
000010 87 b3 03 3e 1a 8d b6 3e d6 97 e2 bc a0 77 76 bd
       0.12861453 0.35654527 -0.027660292 -0.060172677
000020 78 45 eb 3e 58 3b 9e 3e 37 63 4c bf df 62 9c be
       0.45951438 0.3090465 -0.7983889 -0.30544183
000030 21 c6 ac be 63 69 43 be e7 6a 98 3e 1b 73 fd 3d
       -0.3374491 -0.1908317 0.2976906 0.1237547
000040 80 bc 26 bd 29 3a de bc d3 d9 3b 3e 85 16 3a bd
       -0.04070711 -0.027127342 0.18344812 -0.045431633
000050 95 83 bd 3e 1d e2 8d be 05 85 2d 3c f0 00 8c be
       0.37014452 -0.27711573 0.010590796 -0.27344465
000060 d5 2c d0 3e 19 2c ab be b0 58 11 be 70 65 ba bb
       0.40659204 -0.3343208 -0.14193988 -0.005688362
000070 38 e1 ce bd 92 94 5e 3d ce 14 0b bf 3b fc f4 3c
       -0.10101551 0.054340906 -0.5432862 0.02990543
000080 36 21 8c bd 4e cc 0f bf 6a 73 b8 3d db 89 fb 3e
       -0.06842272 -0.5617112 0.090063885 0.49128613
000090 0b 71 0b 3e b9 7e fc 3e a4 b5 28 3e 86 32 62 bd
       0.13617341 0.49315432 0.1647554 -0.055223964
0000a0 ef b2 9a 3d 8f 65 be 3c cf 2d 82 3c df 9d ac 3d
       0.0755366 0.023241786 0.015890984 0.08428549
0000b0 c3 28 f2 bc a9 2f aa be 3c 97 0b bf 2d eb 44 3e
       -0.029560452 -0.33239487 -0.5452764 0.19230337
0000c0 d8 71 d2 3e 9a 2a 9a be cd ca 4d 3e ce dd ef 3d
       0.4110248 -0.30110627 0.20096894 0.11712228
0000d0 80 00 4a 3d fa ea bc 3d 2d 2e e9 be e8 21 13 be
       0.049316883 0.09224506 -0.45543042 -0.14368403
0000e0 16 a3 69 3b d2 6e 49 be 61 4b d2 3d 06 4b 45 be
       0.0035650185 -0.19671181 0.10268284 -0.192669
0000f0 38 3f 7f be 6a 08 1b 3f 1f 94 dd 3c 0c 67 c3 bd
       -0.2492646 0.60559714 0.027048169 -0.09541139
000100 ef 60 e1 3e 3c c4 b7 bd 30 f9 3a 3e 5b 59 d1 3e
       0.44019267 -0.089729756 0.1825912 0.40888485
000110 39 9d 13 3e cc a4 43 3d c3 56 b1 be 12 ea 56 be
       0.14415444 0.047764584 -0.34636506 -0.20987728
000120 4e bc d0 bd a7 c1 c2 3e ac cd 9e 3e 4c 8a 60 bd
       -0.10192166 0.3803837 0.3101629 -0.05481939
000130 a9 36 70 3e 2a 0d d7 bd 9b c9 11 3e cb 2d 8e be
       0.23458351 -0.10500558 0.14237063 -0.27769312
000140 f1 2b 89 3e 05 67 c1 bd c7 99 ec bd 7e 88 bb bd
       0.26791337 -0.094434775 -0.11552768 -0.09156893
000150 92 75 84 3d c9 1c 84 3e 22 8b 44 3e 49 e6 ed 3e
       0.06467737 0.2580321 0.191937 0.46464756
000160 c8 80 d6 be 16 bc 86 3c 79 4f 4b be b7 7d c1 bd
       -0.41895127 0.016447108 -0.19854535 -0.09447806
000170 e7 5b 21 3e cf d7 10 3f 89 8c 16 be 82 0c 27 3e
       0.15757714 0.565793 -0.14702047 0.16313365
000180 33 75 f5 be 5f de 82 3d 97 5a e7 be 50 ac 3a bc
       -0.47940978 0.0639007 -0.45186302 -0.011393622
000190 52 f8 1b 3f 9f 24 fe 3c fa db ab 3d 6c 09 b8 3c
       0.6092578 0.031023322 0.083915666 0.02246543
0001a0 fc 20 8f 3e e9 d2 73 bc 2a 00 d2 bd c1 df 14 3e
       0.27954853 -0.014881828 -0.102539375 0.1453848
0001b0 36 8d b6 be 18 e9 12 bf 3f d9 46 3e 73 96 a4 bd
       -0.3565461 -0.5738692 0.1941881 -0.080365084
0001c0 3e 09 bd be c3 66 81 be f0 01 ea 3d 4a d9 40 bd
       -0.36921114 -0.25273713 0.11426151 -0.047082223
0001d0 fe ff 6c 3e 1d 9e c4 3d 52 e8 d1 be a3 8d 4e bd
       0.23144528 0.0960047 -0.4099756 -0.050428044
0001e0 99 0c d9 3d 9d 52 ae 3e d3 45 d5 39 93 75 9d be
       0.10598106 0.34047404 0.0004067855 -0.30753765
0001f0 b9 73 d5 be f4 00 b3 bd ae 19 91 be 59 b1 f1 bd
       -0.41689852 -0.08740416 -0.28339905 -0.118014045
000200 46 05 23 3b 64 96 f9 3c bb fe 19 3f 33 fd fb bd
       0.002487497 0.03046722 0.6015431 -0.12304153
000210 36 1c d5 3d 3e bf 83 3e 96 1f aa 3e 6d 69 b1 bd
       0.104057714 0.25731844 0.33227223 -0.086626865
000220 bd c3 81 bd 9b a3 6f bd 8f e2 ab bc 0a 87 b8 be
       -0.06336162 -0.058505636 -0.020982055 -0.36040527
000230 45 90 2e 3e 1a 71 48 3e 6e 85 a6 be dc ce fc 3d
       0.17047222 0.19574395 -0.32523674 0.12344143
000240 9f 84 91 3c 78 67 5e 3e 41 6a 33 be b0 d3 44 3b
       0.017763434 0.21719158 -0.17521001 0.0030033402
000250 63 2d 83 bb b4 47 a2 be ca a7 51 bc 58 00 08 be
       -0.0040032133 -0.3169533 -0.012796352 -0.13281381
000260 cf e5 b5 bc af 2b da bc 8c 6e 94 3e 5a b5 fc bd
       -0.022204308 -0.026632158 0.2899059 -0.123392776
000270 71 c3 80 3d 25 78 0d 3e bc 5c ce be f3 4a 4b be
       0.062872775 0.13815363 -0.40305126 -0.1985281
000280 28 cd 1f bf 8d 34 41 be cd 39 8d be 38 91 bf 3e
       -0.6242242 -0.18867703 -0.2758316 0.3741548
000290 09 11 15 3e cc 97 36 bd 8f c2 43 bd 16 db 05 3e
       0.1455728 -0.04457836 -0.047792967 0.13071856
0002a0 60 b9 1f be c8 0c 2f 3e 1b 01 f0 3e b2 16 a2 3d
       -0.15598059 0.1709472 0.46875843 0.07914485
0002b0 a5 5d 23 bd 68 6a 34 3f bc 75 26 be ce d3 2b bf
       -0.03988423 0.70474863 -0.1625585 -0.67120063
0002c0 6b 46 67 bd d3 00 3c be 31 e2 a4 3e d4 67 93 3e
       -0.05646364 -0.1835969 0.3220382 0.28790152
0002d0 fa a0 df be aa 89 1e 3d b7 3e d6 bd 6e 04 27 bd
       -0.43677503 0.038705505 -0.10461181 -0.04077571
0002e0 1a 97 e1 3e 1c 4c a5 3e ad 3d 21 3d 05 d4 25 be
       0.44060594 0.3228463 0.03936546 -0.1619416
0002f0 3d 6b 1e be 84 31 33 3e 75 04 8c 3d 58 56 9c 3d
       -0.15470596 0.17499357 0.068367876 0.07633656
000300 96 6d 8f bd 29 84 4f be 30 ec f6 3d 52 c2 82 be
       -0.07003324 -0.20265259 0.12056768 -0.2553888
000310 9e 77 88 3e d6 72 bb 3e 89 a3 ae be a8 93 14 3f
       0.2665376 0.3661105 -0.34109142 0.58037806
000320 89 e8 13 3e 53 20 1a be 0b 51 90 bc c0 45 a3 be
       0.14444174 -0.15051393 -0.01761677 -0.31889153
000330 14 62 96 be ce 69 2d 3e a7 1a 10 be ad a1 2c 3e
       -0.29371703 0.16934893 -0.14072667 0.1685855
000340 ae 81 e0 3e 4e af b2 bd 70 e4 a2 3e f1 6e 7d 3d
       0.43848938 -0.08724843 0.3181491 0.06187338
000350 cf 7b 53 3d db 2e 28 3e db 5d 3d bd ea c9 79 3c
       0.051631745 0.16424124 -0.046232086 0.015245894
000360 e8 6b a1 3d 40 e3 54 be 91 ed 98 be 0f 25 ec 3c
       0.078819096 -0.20789814 -0.2986875 0.028826265
000370 5c 92 8f be 14 8f 30 3d bf 8b 5f be 5e c0 8f 3e
       -0.2804135 0.0431052 -0.21830653 0.28076452
000380 d2 33 37 bb d4 ac 62 3d 4c d0 8b 3e 2f d2 0d 3e
       -0.0027954471 0.055340603 0.27307355 0.1384971
000390 89 bd 22 bc 63 4d 8c 3e 5a b3 53 be 1d 66 66 bd
       -0.009932884 0.2740279 -0.20673886 -0.056249727
0003a0 11 8e 33 3e a2 25 2f 3d 13 1a 0d 3e 05 27 c8 3e
       0.17534663 0.0427605 0.13779478 0.3909227
0003b0 09 d3 a9 be 56 d5 84 be eb 6d 9a be b9 b2 95 3d
       -0.3316882 -0.25944012 -0.30161986 0.07309479
0003c0 ed ee 5d 3c 2a bc 40 3d 93 7f 37 be 09 f7 2b be
       0.013545734 0.047054447 -0.1791976 -0.16793455
0003d0 d2 89 21 3e 42 fd 9d be 3b d7 ec 3e 80 ff 77 bd
       0.1577523 -0.30857283 0.46257958 -0.0605464
0003e0 c2 8d de be ab 5c df bd
       -0.43467528 -0.10906347

bias f4 [10]
000000 8b 71 d8 3b 89 c5 5b 3d ca 89 68 3c e6 f2 60 be
       0.0066053323 0.05365518 0.014193008 -0.21967658
000010 8a c9 39 3e 7f 37 2b 3e 70 9e 42 3e ef e8 11 3e
       0.18143287 0.16720389 0.19005752 0.14249013
000020 0f dc de be a0 92 35 3e
       -0.43527266 0.17731714
