models/35-35.pt (torch, 114560 bytes, 4 tensors)

weight f4 [35, 784]
-0.00071017817 0.016340598 -0.015429705 0.015924659 -0.0010998212 -0.015819443 -0.013615333 -0.03157368
-0.020750493 -0.023266789 -0.035618566 0.02438724 -0.0354001 0.00086064363 0.0069458107 -0.013785024
-0.0337957 0.012363393 0.020501029 -0.02276244 -0.016710065 0.0044159815 -0.0025666319 -0.001977507
0.006790336 0.0013644025 0.033398148 0.0107416585 0.0026252456 0.006349433 0.019823294 0.018223695
0.025517508 0.034796543 -0.006095494 0.028137572 -0.02111204 0.0008383038 -0.028412221 0.02434848
-0.009499284 0.024977224 -0.015636422 -0.01901751 -0.030117417 0.0006057884 -0.01046157 -0.022178037
0.012883134 -0.017791668 0.0069943564 -0.019084273 0.02964193 0.03470212 0.013052583 0.026429478
0.016201008 0.023671824 0.023984212 0.0115229925 0.0074173883 -0.02615533 -0.023435002 -0.0037807298
-0.0074957362 -0.007821631 -0.013736556 -0.013846913 0.011335984 -0.005547255 0.027513778 -0.035530545
-0.012253185 0.005268642 0.012594579 0.016594471 -0.0017231861 0.011598219 0.013179109 0.01651069
-0.017810348 -0.0069363406 -0.005524926 0.00292442 0.021986783 0.024706095 0.020555776 0.020215005
0.0021142885 0.018963085 -0.023727268 0.034517873 -0.02171721 -0.02365437 -0.026505988 -0.016886767
-0.02595829 0.0023749871 0.02997778 0.016569607 -0.02612725 0.02110962 0.0065920874 -0.011758372
0.023172319 0.011239341 -0.028798457 -0.005232843 0.016023051 -0.031537976 -0.026251212 -0.008022683
0.03388102 0.011946874 -0.023509426 0.026564693 -0.012180422 0.0045538344 0.012427965 0.035443764
-0.025587186 -0.00954458 -0.021667097 0.045592975 -0.0013100504 0.0056626056 0.040089667 0.020455485
0.013294509 0.031029442 -0.0018986015 -0.017474037 0.016636599 -0.027897375 -0.03913366 -0.028960027
0.015435017 -0.002595057 -0.002939322 -0.03231749 0.022414621 0.016286261 -0.018411385 0.006838903
-0.020897446 -0.015533792 -0.027571136 0.04094911 -0.009530946 0.041833557 0.0388256 0.046257254
0.0025970403 0.023260592 0.041460678 0.018913293 0.04266911 0.0053589297 0.017692992 0.00010967389
-0.015485163 0.01905518 0.014459779 -0.030433008 0.028771183 -0.020602822 0.023175031 0.0004332054
0.0069177896 -0.016206322 -0.033522096 0.008115044 0.020444078 0.0014399976 0.021241536 -0.0047542136
-0.010165685 0.010247476 0.028276365 0.031075496 0.019854099 0.067652464 0.04642195 0.041496303
0.027898764 0.06312274 0.048917517 0.0028013207 -0.01795418 -0.025624767 0.017495638 0.02694804
-0.040740646 -0.02758959 0.02083055 -0.014549255 0.0018505228 0.03339368 -0.032974962 -0.026015379
-0.0034479378 0.004850134 0.014618284 0.04727943 0.017046535 0.029219257 0.038139302 0.06484315
0.0644838 0.024976695 0.05769111 0.04699677 0.014785509 0.04881845 0.050932907 0.03271786
0.010922868 0.021721216 0.032421492 0.027519798 -0.023527902 0.0011530926 -0.008211692 -0.035320323
0.020973226 -0.019064592 -0.018472547 0.0028713918 -0.028634585 -0.0026683297 -0.0008037239 0.038439106
0.035709515 0.04811279 0.049005896 0.050832722 -0.002324444 0.065964945 0.034833297 0.068743214
0.082520574 0.081069514 0.05531554 0.04371239 0.0706027 0.05649171 -0.0082315495 0.0043810527
-0.017824052 0.0075112507 0.0012799769 0.020790866 -0.012080323 -0.033432268 0.0040494483 0.030762354
00000000: 402b 3aba b8dc 853c e0cc 7cbc 6e74 823c
00000010: e027 90ba c797 81bc d812 5fbc 6753 01bd
00000020: f0fc a9bc fe99 bebc c6e4 11bd c0c7 c73c
00000030: b2ff 10bd d19c 613a af99 e33b 95da 61bc
00000040: 5c6d 0abd d48f 4a3c c6f1 a73c 4c78 babc
00000050: 8ce3 88bc f0b3 903b f034 28bb 1099 01bb
00000060: 7881 de3b c0d5 b23a 7fcc 083d c8fd 2f3c
00000070: 500c 2c3b e80e d03b 7664 a23c dc49 953c
00000080: 180a d13c d286 0e3d b6bc c7bb c480 e63c
00000090: 28f3 acbc 9ec1 5b3a bfc0 e8bc 7776 c73c
000000a0: e3a2 1bbc 099d cc3c f417 80bc 9cca 9bbc
000000b0: cdb8 f6bc c5cd 1e3a 0167 2bbc b7ae b5bc
000000c0: c813 533c d5bf 91bc ea30 e53b 9f56 9cbc
000000d0: a2d3 f23c cf23 0e3d 80da 553c a282 d83c
000000e0: fab7 843c 6aeb c13c 8a7a c43c efca 3c3c
000000f0: 900d f33b b443 d6bc c3fa bfbc 1fc6 77bb
00000100: cb9e f5bb 4c26 00bc 4b0f 61bc 2ade 62bc
00000110: 90ba 393c bfc5 b5bb 9364 e13c 7a88 11bd
00000120: 95c1 48bc 93a4 ac3b 7e59 4e3c 21f1 873c
00000130: 88dc e1ba 7506 3e3c 31ed 573c 6d41 873c
00000140: 02e7 91bc 3e4a e3bb 700a b5bb a0a7 3f3b
00000150: a01d b43c 7064 ca3c 9664 a83c f099 a53c
00000160: e08f 0a3b 7958 9b3c b05f c2bc 9d62 0d3d
00000170: 4ae8 b1bc cfc6 c1bc 1623 d9bc 1e56 8abc
00000180: 7ba6 d4bc aca5 1b3b f693 f53c fcbc 873c
00000190: d108 d6bc 15ee ac3c 7002 d83b 30a6 40bc
000001a0: e0d3 bd3c 3725 383c beea ebbc 4578 abbb
000001b0: c642 833c f72d 01bd c80c d7bc 9271 03bc
000001c0: d3c6 0a3d d2bc 433c d796 c0bc 339e d93c
000001d0: 6590 47bc 5538 953b aa9e 4b3c 7b2d 113d
000001e0: 389c d1bc df60 1cbc 327f b1bc b3bf 3a3d
000001f0: ffb5 abba 618d b93b 1035 243d 4392 a73c
00000200: 36d1 593c 7531 fe3c 7fda f8ba b625 8fbc
00000210: 7a49 883c 0989 e4bc 9e4a 20bd 943d edbc
00000220: 27e3 7c3c d511 2abb a4a1 40bb 585f 04bd
00000230: de9e b73c c46a 853c 79d3 96bc e018 e03b
00000240: 1f31 abbc 7281 7ebc dddc e1bc 41ba 273d
00000250: af27 1cbc aa59 2b3d 9807 1f3d 3f78 3d3d
00000260: 1b33 2a3b ff8c be3c acd2 293d 0df0 9a3c
00000270: cec5 2e3d f699 af3b e5f0 903c b900 e638
00000280: 7bb5 7dbc 9c19 9c3c b5e8 6c3c a54e f9bc
00000290: 8bb1 eb3c 40c7 a8bc 90d9 bd3c d81f e339
000002a0: a0ae e23b 1fc3 84bc 774e 09bd f6f4 043c
000002b0: 577a a73c 4dbe bc3a bb02 ae3c 3cc9 9bbb
000002c0: f98d 26bc 08e5 273c d6a3 e73c 0a92 fe3c
000002d0: 10a5 a23c 608d 8a3d f124 3e3d 07f8 293d
000002e0: f38b e43c 7f46 813d bc5d 483d 5d96 373b
000002f0: a514 93bc 08eb d1bc 0353 8f3c 23c2 dc3c
00000300: aadf 26bd 9003 e2bc d4a4 aa3c 0060 6ebc
00000310: 3e8d f23a d0c7 083d c110 07bd 341e d5bc
00000320: ccf6 61bb dfed 9e3b 8781 6f3c 13a8 413d
00000330: 2da5 8b3c 395d ef3c f537 1c3d 7ccc 843d
00000340: 1510 843d ed9b cc3c 834d 6c3d af7f 403d
00000350: eb3e 723c dbf5 473d 069f 503d 2a03 063d
00000360: d4f5 323c b1f0 b13c 66cc 043d 3371 e13c
00000370: 96bd c0bc 5e23 973a 558a 06bc 0bac 10bd
00000380: 0bd0 ab3c 592d 9cbc bd53 97bc f62d 3c3b
00000390: 1493 eabc 25df 2ebb ffb0 52ba 5372 1d3d
000003a0: 2444 123d eb11 453d 68ba 483d f935 503d
000003b0: b355 18bb a118 873d 5cad 0e3d 3ec9 8c3d
000003c0: 8c00 a93d c607 a63d 8c92 623d c30b 333d
000003d0: 2698 903d da63 673d 9fdd 06bc ef8e 8f3b
000003e0: bf03 92bc f020 f63b e6c4 a73a 9b51 aa3c
000003f0: 8cec 45bc 46f0 08bd 3cb1 843b 5501 fc3c

bias f4 [35]
0.0018983321 0.11326966 0.04292646 0.036775358 0.03828008 0.027351642 0.08819554 -0.050024737
0.029511997 0.088974714 0.068080686 0.043329354 0.12890537 -0.022568215 0.098877065 0.037909683
0.0070475126 -0.020493967 0.06739098 0.06653269 0.015329981 0.029713731 0.04053164 0.05366911
0.074409015 -0.028126504 0.09478345 0.019568536 0.060833253 0.010889557 0.064034775 0.011096269
0.07972022 -0.0066132196 -0.00788877
00000000: 75d1 f83a ecf9 e73d a8d3 2f3d c2a1 163d
00000010: 93cb 1c3d 8d10 e03c dd9f b43d bde6 4cbd
00000020: 25c3 f13c 6038 b63d e36d 8b3d 1f7a 313d
00000030: c5ff 033e fae0 b8bc 0f80 ca3d 2f47 1b3d
00000040: d2ee e63b f7e2 a7bc 4804 8a3d 4a42 883d
00000050: 9a2a 7b3c 366a f33c 8104 263d 24d4 5b3d
00000060: c163 983d 8e69 e6bc d31d c23d 324e a03c
00000070: 4a2c 793d 1d6a 323c aa24 833d 20cd 353c
00000080: 5b44 a33d b5b3 d8bb e63f 01bc

weight f4 [10, 35]
0.3686615 0.33156514 0.2739571 0.035347115 -0.35810727 0.3576415 -0.22394526 -0.1219516
-0.17175704 0.46784046 -0.3267987 -0.27357048 -0.112427 0.051974457 0.029375287 -0.17429411
-0.11589936 -0.069061905 -0.09796333 -0.13350455 -0.2613036 0.08681338 0.27373424 -0.25128183
-0.31585377 0.0042344187 -0.35375333 0.15857369 -0.40322873 0.4340453 0.10900171 -0.08371557
0.047889113 -0.0013894774 0.006150505 -0.3402706 0.19470769 -0.15254013 -0.29270324 0.3432906
-0.38460454 0.24044523 -0.14183952 -0.14614187 -0.25460744 0.38200575 0.32199934 -0.03891593
-0.00732761 0.44754952 -0.18103136 0.15185064 0.020630065 0.01919511 -0.23949213 -0.16583523
-0.37989295 0.09887535 -0.009492146 -0.29778948 -0.2346888 0.49416485 0.019766243 -0.022411393
-0.4037235 0.25901207 -0.16174145 0.120942354 -0.19666168 -0.04831194 0.084549524 -0.066572875
0.21858782 -0.37009493 -0.19979706 0.27180445 -0.24036758 0.43969837 0.24616112 -0.1941502
0.26101676 0.03474292 -0.37986758 0.14796062 0.39885694 -0.13250983 -0.18854304 0.18626273
0.032055635 -0.017603291 0.03474076 -0.21537419 -0.2557244 -0.12448064 0.27474415 -0.24137956
0.13413481 -0.24752146 -0.12384192 0.29494265 -0.10276705 0.078395806 -0.1034794 -0.15986347
0.2958046 0.07266629 -0.30441344 -0.0033548602 -0.096257634 -0.41928118 -0.1640407 0.3309906
0.34032413 0.19127554 -0.20678772 -0.064825825 -0.2941056 0.20414917 0.07352906 0.08429048
0.10065491 -0.10970178 0.22513816 0.28379604 -0.26061723 -0.31261647 -0.37771192 0.059459873
0.42126852 -0.31593278 0.12206188 -0.16761355 0.04677346 0.1634529 0.32992944 0.03858029
-0.081477374 0.24258174 -0.04479221 0.06958371 -0.18225914 0.053509455 -0.150092 0.043681107
0.16713113 0.22776288 -0.0626757 -0.42980188 0.27780116 0.021352442 -0.19222638 -0.15228976
-0.020472424 0.0075227353 -0.19109492 0.27739033 -0.24636805 0.08819642 0.19267945 0.43698904
-0.033866458 0.24020946 -0.32846144 0.10602598 0.2617905 -0.15558717 -0.27567774 0.18995427
0.51547384 -0.29681247 -0.18719617 -0.06320368 -0.33831173 -0.24237928 0.053647153 -0.03802579
0.08876642 0.059251726 0.46768558 0.17142159 -0.28709316 0.14960696 0.029405821 0.041472528
0.3956222 -0.34517187 -0.3024202 0.15098952 -0.12266676 -0.2851582 0.13302949 0.11143163
0.04713849 0.17447814 0.13939458 -0.06479822 -0.24386775 0.013323357 0.014430612 -0.30948168
-0.16546212 -0.0051399698 0.039751716 -0.2931227 0.38791737 -0.15283243 0.0012146281 0.1455729
0.028251303 -0.16192044 -0.18689884 0.062114187 -0.190702 -0.12955658 -0.31562677 -0.006537677
0.10417015 -0.38057 -0.20491289 0.39439493 0.4182908 0.21238041 -0.15022829 -0.14399973
-0.0061464077 -0.24001512 0.45740804 -0.05870771 -0.3086296 0.28708267 0.41314447 0.15738748
-0.19894402 -0.24322803 0.16667284 -0.39094537 -0.09019092 0.2525338 0.0110890865 0.09749717
-0.0116016315 0.12813385 -0.14621729 -0.053906746 -0.09865877 0.07345838 -0.14325428 0.09844215
-0.2224547 -0.1982004 -0.09534062 0.0005651036 -0.06316295 0.16288762 -0.24853313 -0.23516129
00000000: 33c1 bc3e e8c2 a93e 1b44 8c3e 23c8 103d
00000010: d659 b7be c91c b73e e851 65be c3c1 f9bd
00000020: 14e1 2fbe c988 ef3e 2952 a7be 6e11 8cbe
00000030: 2140 e6bd 2be3 543d 71a4 f03c 287a 32be
00000040: a55c edbd 5470 8dbd 00a1 c8bd 6bb5 08be
00000050: 96c9 85be 37cb b13d e526 8c3e 03a8 80be
00000060: 96b7 a1be e1c0 8a3b 281f b5be 2461 223e
00000070: ff73 cebe 303b de3e 4a3c df3d 1273 abbd
00000080: 6027 443d 201f b6ba 2d8a c93b f337 aebe
00000090: 7461 473e 7b33 1cbe 33dd 95be c9c3 af3e
000000a0: e3ea c4be 4637 763e 613e 11be 37a6 15be
000000b0: e85b 82be 4296 c33e 19dd a43e 4f66 1fbd
000000c0: 731c f0bb 3625 e53e 4960 39be bc7e 1b3e
000000d0: 6200 a93c 103f 9d3c 6d3d 75be b6d0 29be
000000e0: 5481 c2be 297f ca3d f284 1bbc dd77 98be
000000f0: 4352 70be 2d03 fd3e d1ec a13c 1998 b7bc
00000100: d9b4 cebe 3b9d 843e 8d9f 25be a0b0 f73d
00000110: ae61 49be bee2 45bd 4d28 ad3d 5c57 88bd
00000120: 7cd5 5f3e 157d bdbe 9a97 4cbe f429 8b3e
00000130: eb22 76be 2520 e13e a911 7c3e 4fcf 46be
00000140: fda3 853e 984e 0e3d 017e c2be fd82 173e
00000150: fa36 cc3e a8b0 07be 6d11 41be a8bb 3e3e
00000160: c54c 033d c734 90bc 544c 0e3d 0d8b 5cbe
00000170: 4fee 82be b5ef febd 44ab 8c3e 342c 77be
00000180: a35a 093e 4476 7dbe d5a0 fdbd b902 973e
00000190: 8877 d2bd fb8d a03d 02ed d3bd 40b3 23be
000001a0: b373 973e 10d2 943d 14dc 9bbe 37dd 5bbb
000001b0: b922 c5bd 06ac d6be 49fa 27be 9a77 a93e
000001c0: f73e ae3e bcdd 433e 29c0 53be 67c3 84bd
000001d0: 0295 96be 7b0c 513e 6796 963d 7da0 ac3d
000001e0: 2924 ce3d 54ab e0bd 9e8a 663e b74d 913e
000001f0: 9f6f 85be 440f a0be 7563 c1be 328c 733d
00000200: 82b0 d73e f1c1 a1be 94fb f93d e3a2 2bbe
00000210: 8795 3f3d 3260 273e 83ec a83e 5e06 1e3d
00000220: 9cdd a6bd 5967 783e 0978 37bd e781 8e3d
00000230: 24a2 3abe bb2c 5b3d b8b1 19be f6ea 323d
00000240: 6c24 2b3e ac3a 693e 1e5c 80bd fe0e dcbe
00000250: f43b 8e3e 51eb ae3c fed6 44be d9f1 1bbe
00000260: c9b5 a7bc 4781 f63b 63ae 43be 1b06 8e3e
00000270: e847 7cbe 53a0 b43d c34d 453e 07bd df3e
00000280: 8eb7 0abd 78f9 753e 192c a8be 2624 d93d
00000290: 6809 863e 3e52 1fbe a225 8dbe 5f83 423e
000002a0: 18f6 033f cef7 97be 5ab0 3fbe ee70 81bd
000002b0: 3237 adbe 4632 78be 1ebd 5b3d eec0 1bbd
000002c0: 2bcb b53d f0b1 723d 7c74 ef3e 2489 2f3e
000002d0: e0fd 92be 9132 193e 7ae4 f03c 19df 293d
000002e0: fe8e ca3e 5eba b0be d2d6 9abe ff9c 1a3e
000002f0: b638 fbbd 4100 92be e238 083e 4436 e43d
00000300: 4a14 413d 66aa 323e 74bd 0e3e eeb4 84bd
00000310: 78b8 79be 364a 5a3c 606e 6c3c 6274 9ebe
00000320: e76e 29be 316d a8bb b2d2 223d 2e14 96be
00000330: 1b9d c63e 1b80 1cbe 2834 9f3a 1011 153e
00000340: 476f e73c 79ce 25be 6962 3fbe 726b 7e3d
00000350: 6347 43be 7baa 04be d599 a1be 023a d6bb
00000360: 2957 d53d 12da c2be afd4 51be 22ee c93e
00000370: 362a d63e 407a 593e 72d5 19be aa74 13be
00000380: ce67 c9bb 86c6 75be 6331 ea3e 7f77 70bd
00000390: b304 9ebe 80fc 923e ac87 d33e 2f2a 213e
000003a0: fbb7 4bbe c510 79be 49ac 2a3e fe29 c8be
000003b0: 04b6 b8bd 1c4c 813e 00af 353c 99ac c73d
000003c0: c514 3ebc 8535 033e fcb9 15be 52cd 5cbd
000003d0: 9c0d cabd 5971 963d 40b1 12be 0a9c c93d
000003e0: 2acb 63be 0cf5 4abe f141 c3bd 7623 143a
000003f0: 945b 81bd 03cc 263e 787f 7ebe 1fce 70be

bias f4 [10]
-0.20838025 0.23203453 -0.051590767 -0.017024077 -0.07556881 0.09099064 0.050911818 0.1266811
-0.27364108 0.044361714
00000000: a261 55be 769a 6d3e d750 53bd 1476 8bbc
00000010: d2c3 9abd 4d59 ba3d e988 503d b1b8 013e
00000020: af1a 8cbe a1b4 353d
